assets/hand_gesture_model.tflite (tflite, 106888 bytes, 6 tensors)

arith.constant f4 [26, 64]
000000 1f d7 f1 be 04 cd 87 bd 29 49 5c 3e 9b 59 6a 3e
       -0.47234437 -0.066309005 0.21512283 0.22885744
000010 88 8d 3d 3d e3 75 53 3e a1 d9 52 be b7 3b a6 be
       0.046277553 0.20650439 -0.20590831 -0.32467434
000020 02 95 10 3e 46 9a 05 bf 8e 1f d3 be 7b 01 9a 3e
       0.14119342 -0.5218853 -0.41235012 0.30079255
000030 26 b3 de be a9 aa c4 bc 3e 09 86 3e 3a fa 87 3e
       -0.43496054 -0.024007158 0.26178926 0.26558095
000040 68 f8 24 3e 6b ca 9b 3e 6d 65 6b 3e f9 27 dd bb
       0.16110384 0.3042787 0.2298791 -0.00674915
000050 74 d3 6a 3e 02 3f a6 3d 1c 11 dd bd 75 5f 08 3e
       0.22932225 0.081174865 -0.10794279 0.13317664
000060 40 79 a3 3d 07 b7 dd bc 21 86 c2 bc 63 37 44 3e
       0.07982111 -0.027064813 -0.023745598 0.19161753
000070 e4 f8 0c 3c ee 4c d5 be 97 f9 88 bd 8d aa 3a be
       0.008604262 -0.41660255 -0.066882305 -0.18229122
000080 0e ba f8 be 57 d5 a7 be c7 ec 3b be 81 6c fa bd
       -0.48579448 -0.32779953 -0.18352042 -0.12227727
000090 00 14 86 ba 7e d6 82 3d e3 84 6c 3e 82 1f b3 be
       -0.0010229349 0.063885674 0.23097567 -0.34984976
0000a0 be 16 69 bd ff 50 b4 be 6c aa a6 be 4a 69 49 3e
       -0.056906454 -0.35218045 -0.32551897 0.19669071
0000b0 d2 2a 81 3d 86 b4 46 3e 65 0f 93 be 00 17 76 3c
       0.063069955 0.19404802 -0.28722683 0.015020132
0000c0 0e 40 33 3e aa e5 4c 3e 87 57 08 bf d6 68 d1 bd
       0.17504904 0.20009485 -0.53258556 -0.10225074
0000d0 01 61 25 3e 2c 93 8d 3e a5 14 29 3e 9e 81 78 3e
       0.16150285 0.27651346 0.16511782 0.24268195
0000e0 cc 8a 19 be ee a1 3a 3e 0e 83 2b be d6 65 7c bd
       -0.14994353 0.18225834 -0.16749212 -0.061620556
0000f0 6c 85 91 3e d7 40 6f 3b bf c9 09 bf 31 12 41 3e
       0.28422105 0.0036507153 -0.53823465 0.18854596
000100 4b 54 31 3e 17 f4 68 3e 17 f9 05 3e 24 48 5c 3e
       0.17317311 0.22749363 0.13083301 0.21511894
000110 f1 b3 d3 be 3d f4 af bd c1 10 87 bc df ab 32 bd
       -0.41348222 -0.08591507 -0.016487481 -0.04362094
000120 e7 ab ce 3e c2 83 09 bf 16 22 d5 bd 3b e3 87 be
       0.40365526 -0.5371667 -0.10406892 -0.2654055
000130 cc fc cb bd a2 e3 09 3e 03 4c d2 3d 20 db de 3e
       -0.099603266 0.13465741 0.10268404 0.43526554
000140 a4 69 8f bd 4f 46 4e be 45 a3 9c bd d6 20 a7 3d
       -0.07002571 -0.20144008 -0.07648329 0.0816056
000150 be 6b eb be a3 51 de bd d3 57 7c be 48 b7 01 3d
       -0.45980638 -0.10855415 -0.24642877 0.03166893
000160 a6 85 de 3d 8a 02 85 3e 04 b5 95 be 45 5d df 3d
       0.10865335 0.259785 -0.29239666 0.109064616
000170 11 6a d3 3d 79 39 b9 bd 32 09 54 3e 59 53 1a 3e
       0.10322965 -0.09044165 0.20706633 0.15070857
000180 c3 70 a6 bc d7 51 9d 3e 2f 7b b2 bd 96 19 1a 3e
       -0.02031744 0.307265 -0.08714902 0.15048823
000190 7b 08 c7 bb 6a 92 0b bf b9 a4 83 3e 6b c3 9c 3e
       -0.006074009 -0.54520285 0.2571161 0.30617842
0001a0 fb 3c e3 3d 45 cb 32 3e 9a ec 56 3e b0 3a 95 be
       0.110956155 0.17460354 0.20988694 -0.29146338
0001b0 48 74 81 3c 3b 68 ca bd f8 f0 80 3d 23 76 71 3e
       0.015802518 -0.09883162 0.06295961 0.23580222
0001c0 f3 70 77 3e 9e bd 1f 3e c6 1e 1c 3e b1 a9 56 3e
       0.2416418 0.15599677 0.15246114 0.2096317
0001d0 f3 9d fd 3d 27 cd 04 bf fc 1e 1a bf dd 39 e4 be
       0.12383642 -0.5187554 -0.6020353 -0.44575396
0001e0 bc a1 dc be 04 16 02 3e c0 83 9b 3d d3 a9 ec be
       -0.43092144 0.12703711 0.07593489 -0.46223316
0001f0 89 dc 3b 3e 61 50 3a 3d 90 ff d3 3c e7 24 c0 be
       0.18345846 0.04548681 0.025878698 -0.37528154
000200 d3 70 26 bf 39 38 06 be 84 26 ac 3d fe 9c 5c 3e
       -0.65015906 -0.13107385 0.08405784 0.21544263
000210 88 c1 58 be 97 78 a9 3e 03 73 02 be 22 6a 4b bf
       -0.21167576 0.33099815 -0.12739186 -0.7945882
000220 c9 2e fc be 93 20 26 be a0 70 63 be d5 fb b1 3e
       -0.49254444 -0.16223364 -0.22210932 0.34762445
000230 13 f9 c2 3b 1d c3 fc be 89 fc 68 be c7 cc 88 be
       0.005950102 -0.4936761 -0.22752585 -0.26718733
000240 05 0a 6e 3d 25 07 56 be 04 5b b4 bc 76 4c c9 3e
       0.058115024 -0.20901163 -0.022016056 0.39316148
000250 ba 03 ab 3e 16 f6 54 3e 4c 04 51 be f9 7d 0c bf
       0.3340128 0.20797 -0.20411795 -0.5487972
000260 fc 73 47 3e c9 80 b4 3e a5 63 2f 3d 35 76 f0 be
       0.19477838 0.35254505 0.042819638 -0.46965185
000270 b3 89 39 3c ec d0 a9 be df 4b 84 bd 48 d4 30 3e
       0.011324334 -0.33167207 -0.06459784 0.17268479
000280 7a 2c b9 bd 2c ea 91 be b2 f7 41 3e 9d ae c8 be
       -0.09041686 -0.2849897 0.18942145 -0.3919572
000290 42 29 48 3e c2 a1 de be e1 90 a8 be d8 f6 7b bd
       0.19546989 -0.43482786 -0.32923034 -0.061514705
0002a0 a3 67 90 3e d5 94 f3 be 93 e7 df bd 52 da 4a be
       0.2820407 -0.47574487 -0.10932841 -0.19809845
0002b0 4b a1 8d be 9a 13 b7 be bb d1 de 3d e1 1b 80 3d
       -0.2766212 -0.35757142 0.10879847 0.062553175
0002c0 54 9c 44 bf 20 7f 9e 3e 81 dc 1c bf 79 cf 3e be
       -0.7680104 0.30956364 -0.6127396 -0.18633832
0002d0 6a af 82 be c1 f3 35 bd ec 4d a0 3d 50 a0 91 3e
       -0.25524455 -0.044421915 0.078273624 0.2844262
0002e0 de 61 72 be 83 2c 7c 3c ae 57 13 bf 37 50 07 bf
       -0.23670146 0.015391472 -0.57555664 -0.52856773
0002f0 56 61 c3 3e b7 f2 9d be 5b 18 83 3c 28 35 9f be
       0.381602 -0.3084924 0.016002825 -0.31095243
000300 12 d3 b1 bd 5f 72 7e be 7d 80 48 bd 65 b5 d6 3e
       -0.086828366 -0.24848317 -0.04895066 0.41935268
000310 08 62 8f 3e ac c5 33 3e 84 77 18 bf 93 71 a7 be
       0.2800448 0.17555875 -0.59557366 -0.32703838
000320 17 8f 09 3e 2f e6 eb 3d 35 9f 0d 3e cb e3 c7 3e
       0.1343349 0.115185134 0.13830264 0.3904098
000330 85 f3 6c 3e 3b 6e 2a be 2e 74 f3 be be ad 18 3c
       0.2313977 -0.16643612 -0.47549576 0.009318767
000340 de de 08 3e 63 f7 b1 be 98 40 4c 3e cc 2e ad be
       0.13366267 -0.34759054 0.19946516 -0.33824766
000350 20 ab 9b 3e e7 fd df 3d 62 9d b7 3e 3b fd b0 bd
       0.30403996 0.109371 0.3586226 -0.0864205
000360 8e 19 bc be 6b 2c b5 be 26 24 a2 3e 75 e3 08 be
       -0.36738247 -0.3538545 0.31668204 -0.13368018
000370 56 be 35 3d 40 07 2e bf 49 e3 b4 3d 69 fe 0e bf
       0.04437097 -0.6797981 0.08832414 -0.5585695
000380 69 cc bc be d4 8b d3 be 1e 11 1e bf b5 c6 11 bf
       -0.36874703 -0.41317618 -0.6174487 -0.5694383
000390 78 0e 1c bf 81 9b 3d bf a3 cc e0 3d 8a 57 f6 be
       -0.6095958 -0.74065405 0.10976531 -0.48113662
0003a0 8f c5 38 3e 94 ae fb 3d 18 07 05 bf 8c be c1 3d
       0.18044113 0.122891575 -0.5196395 0.09460172
0003b0 60 ab 55 be 82 8d b2 be c3 21 11 3e f5 b8 02 bf
       -0.20866156 -0.34873587 0.14173035 -0.5106347
0003c0 a9 98 2c bf bd b3 31 be 62 dc 9d be 09 46 11 bf
       -0.6742044 -0.17353721 -0.308322 -0.5674749
0003d0 10 34 ee bd 3f f7 ab 3e 1d 97 a4 3e f7 98 1e 3e
       -0.11631024 0.3358707 0.3214654 0.15488039
0003e0 5c 62 94 be d3 00 ec be 72 ac b3 be 8f fb 81 be
       -0.28981292 -0.4609438 -0.35092503 -0.25387236
0003f0 d2 d2 be 3e 5e 60 2e bf 09 42 32 bf ee 97 89 be
       0.37270218 -0.68115795 -0.6963201 -0.26873726

arith.constant1 f4 [64, 128]
000000 b1 7c f9 3d 21 68 2c be 1f d4 a8 be ee b7 28 3e
       0.12181986 -0.16836597 -0.32974336 0.16476414
000010 16 19 12 3e 3b ed d5 3d 56 d4 17 be cb 93 71 3d
       0.14267382 0.10445639 -0.14827093 0.058978837
000020 06 e9 46 3e 87 ac 80 bd 60 27 99 bb a5 98 23 be
       0.19424829 -0.06282907 -0.0046738833 -0.15976198
000030 8c 64 da bd ae 06 57 3e 87 60 6e 3d 0f 5d 0b be
       -0.10663709 0.20998642 0.058197524 -0.13609718
000040 32 8a 33 be 2e af 9e 3d 91 50 28 be 93 93 a6 be
       -0.17533186 0.077482566 -0.16436984 -0.32534465
000050 8b 73 86 3c d9 5e 3b 3e 15 b1 e6 bc 13 2f ca 3e
       0.016412517 0.182979 -0.028160611 0.3948904
000060 8b 1c c2 3e dc 23 d6 bd ad 4a 64 bc 33 25 e3 3d
       0.37912402 -0.104560584 -0.01393382 0.110910796
000070 b5 e8 be 3c ee 02 f5 3e 24 67 7c be c4 04 2e be
       0.023304323 0.47853798 -0.2464872 -0.16994005
000080 69 be 87 3b a5 9a 2c 3e 09 5c 02 3e ad 45 72 3e
       0.0041425717 0.16855867 0.12730421 0.23659392
000090 a1 69 eb 3d 3b 8a 50 3e 2d 26 5f bd 05 0f 16 be
       0.114947565 0.2036523 -0.054479767 -0.14654167
0000a0 7a 5e 75 3e 29 29 8b 3e fd 57 81 3d 13 aa d9 bb
       0.23961821 0.2717984 0.063156106 -0.006642589
0000b0 d5 a8 9e 3d cc 16 b0 be d1 a7 e5 3d bf 47 05 be
       0.07747046 -0.34392393 0.11213649 -0.1301565
0000c0 6e f4 f1 bc 0a 64 a5 3d b0 a7 0b 3e 31 12 35 be
       -0.029535498 0.080757216 0.13638186 -0.1768272
0000d0 91 54 34 be 67 36 1e be cb e3 29 3f 25 6a 47 3e
       -0.17610385 -0.1545044 0.6636321 0.19474085
0000e0 08 15 cb 3c 31 af 6f be 68 3c dc be 40 df 29 3d
       0.024790302 -0.23406674 -0.43014836 0.041472673
0000f0 96 89 58 3d f8 b3 19 bd 11 1e 3a 3e 6f 3b 9b ba
       0.052865587 -0.037525147 0.18175532 -0.0011843274
000100 d1 d4 7e bd 72 42 86 be b2 f7 76 3e 85 83 63 3e
       -0.062214676 -0.2622257 0.24117926 0.2221814
000110 c5 5d e7 3e 30 db 2a be 31 2c de bd d5 50 bc bd
       0.45188728 -0.16685176 -0.108482726 -0.09195105
000120 25 50 aa 3e d4 9f 02 bd 02 54 2d be d3 0a 0c 3e
       0.3326427 -0.031890705 -0.16926578 0.13676004
000130 3a 0f 33 3e 2c 6d ed 3d c7 a3 ec 3e 60 c8 13 3e
       0.17486277 0.115930885 0.46218702 0.14431906
000140 fa c4 7c 3e a1 d7 84 bd c1 04 09 be e7 e2 0c be
       0.24684516 -0.064864404 -0.1338072 -0.13758431
000150 0a ef 06 bf fa 94 af be 95 b6 11 3e 22 b6 45 3f
       -0.52708495 -0.34293348 0.14229806 0.7723104
000160 4b 77 a1 3e cd 0b 41 bc ef 26 b5 bd 7f 6a 01 be
       0.31536326 -0.011782599 -0.088453166 -0.12638281
000170 ab 0c 2b 3e 7c 3e 0c 3e de ee 4e 3e ef 71 30 3e
       0.16704051 0.13695711 0.20208308 0.17230962
000180 b5 56 7c bd fa 72 92 be 4a fc 72 bd 11 d9 8d 3e
       -0.061606128 -0.28603345 -0.059322633 0.2770467
000190 62 69 fc bd fa 0e 0b bc ea e2 1a bd fe fd 6d 3e
       -0.12324788 -0.008487457 -0.03781406 0.23241422
0001a0 81 da 87 bd 10 6a 3a bd 10 70 32 bd b0 a1 32 3d
       -0.06633473 -0.045511305 -0.043563902 0.04361123
0001b0 71 38 0d 3e 38 9f de 3c bc 22 2c 3e 2d f5 64 be
       0.13791062 0.02717553 0.16810125 -0.22359152
0001c0 ed 42 8a 3d d7 a1 07 3e 2e 64 2e bd 72 00 29 bc
       0.06751046 0.13245331 -0.042576008 -0.010315048
0001d0 90 51 b0 3e 31 7a 6e be 5b f5 2b 3c 35 b6 fe be
       0.34437227 -0.232888 0.010495509 -0.49748388
0001e0 98 55 36 3c e9 3b 25 3e 8e 4d 7b be be ac 83 be
       0.011128806 0.16136135 -0.24541304 -0.2571773
0001f0 c9 33 c0 bd 60 31 24 be ee 05 c5 3d b0 ed 89 bd
       -0.09384877 -0.1603446 0.096202716 -0.067347884
000200 05 5b d9 3c 8c f9 f6 3c 7b 8c e8 bd 61 59 28 bd
       0.02653266 0.03014829 -0.113549195 -0.041100863
000210 a6 0e 6f 3e 36 36 db 3c b8 37 d0 3b 87 a8 1f be
       0.23345432 0.026759248 0.0063542984 -0.15591632
000220 a3 b2 c1 bc 32 5d 6e bd 26 cc 5f bc af 9a 24 3e
       -0.023644751 -0.058194347 -0.013659513 0.16074632
000230 99 db 18 be 70 d6 79 3e bf cb 8f 3e b3 84 26 be
       -0.1492752 0.24398208 0.28085133 -0.16261558
000240 34 86 28 bc 3a f6 c4 bd 6a 84 0f be b8 41 2c be
       -0.010285903 -0.096172765 -0.14015356 -0.16821945
000250 5f cb e4 3d 6f ca 89 bc ac a7 0d 3e 99 5c 1a bd
       0.111716025 -0.01682016 0.13833493 -0.037685964
000260 db ee 48 3e 92 9f e5 3c a2 f0 ed bd ee b9 aa 3e
       0.19622366 0.02803019 -0.11618163 0.33344978
000270 31 88 ec bd 80 cc 18 be 3c 37 ca 3c 33 8a 27 be
       -0.11549414 -0.1492176 0.02468454 -0.16361313
000280 f9 10 c9 3c 6b e8 68 bc e8 52 35 3d 68 51 39 bd
       0.024544226 -0.014215569 0.04426852 -0.04524365
000290 cc 71 37 3d 95 4b 41 3e ab a2 8a 3c 70 10 15 3d
       0.04478626 0.18876489 0.01692327 0.03639263
0002a0 ec 3c 4d bd 0b 1b 97 be 04 fd 77 be 40 23 05 bc
       -0.050106928 -0.2951282 -0.24217612 -0.00812608
0002b0 0f 06 e1 bd 13 7c 52 3e 4d 43 94 3e 59 ff a2 3e
       -0.10987484 0.20555143 0.28957596 0.3183544
0002c0 60 b8 f5 3d 9a 11 a0 bd 1b b2 52 bd 3a 01 3a be
       0.11998057 -0.07815857 -0.051439386 -0.1816453
0002d0 d8 e7 3a 3e fd 2c 9f bd 9e ba b4 3e 14 a9 bf bd
       0.18252504 -0.07772253 0.35298628 -0.09358421
0002e0 68 0c a3 bd 57 ee 8b bd 14 f6 a7 3d 4d 84 c9 bd
       -0.07961351 -0.06832569 0.082012326 -0.098396875
0002f0 09 aa ac bd 58 a9 4c be 79 6f c6 be 83 ae 60 bd
       -0.08430869 -0.19986475 -0.38756922 -0.054853927
000300 55 45 5e be c0 b5 8d be 62 38 11 bd 5d 7e b1 3e
       -0.21706136 -0.27677727 -0.03545416 0.3466672
000310 4d 4e bb bd 22 d1 39 3c f1 6d 9b bb 3d 03 bd bc
       -0.09145794 0.011341365 -0.0047433306 -0.023072833
000320 e5 24 53 bc 27 3e 22 be 4f ee 28 3d b0 e8 ee 3d
       -0.012887214 -0.15844022 0.041242894 0.11665475
000330 4e 8e 50 3e f6 c7 94 bd c4 e6 99 bd 50 c7 ad 3e
       0.20366785 -0.07264702 -0.07514718 0.33941126
000340 c0 d9 46 bd 3b 7f 76 be 57 b6 12 bf ad c4 16 bd
       -0.048547506 -0.24071972 -0.5730948 -0.03680866
000350 e6 07 7d 3e fe 6e 28 3e 03 14 b5 3d 6c 4c fb 3c
       0.24710044 0.1644859 0.088417076 0.03067609
000360 d0 2e 04 be 62 a6 f1 bb 9c da 70 3d cd 22 9e bc
       -0.12908483 -0.0073745707 0.058802232 -0.019303704
000370 b6 6f 94 3d a2 51 be bc 78 b2 da 3d 3d d1 9d be
       0.0724787 -0.023232285 0.106785715 -0.308237
000380 01 d1 ad 3d 0d e8 4f 3e 09 7c 6f 3d 8e 8a a4 bc
       0.0848713 0.20303364 0.0584679 -0.0200856
000390 e6 b7 35 3f d8 4a 65 be 98 3a 3a 3e 16 62 ef 3c
       0.7098373 -0.22391832 0.18186414 0.029221576
0003a0 ce 50 34 be 81 fd 16 be da 7e 75 bd 29 36 22 bd
       -0.1760895 -0.14745142 -0.05993543 -0.039602432
0003b0 72 3b 06 3e 8e be d8 3d 00 f6 43 3d 07 0a e0 3e
       0.13108614 0.105832204 0.047842026 0.4375765
0003c0 d7 ef 8a 3e 84 07 2e 3d 73 56 26 be 54 90 05 be
       0.27136108 0.042487636 -0.16243915 -0.13043338
0003d0 2d 28 fa bd 4a 6e 03 be 1a 29 84 be 7d 99 3b 3e
       -0.12214694 -0.1283504 -0.25812608 0.1832027
0003e0 7e 26 db 3d 89 bc d0 3d 4f b0 f6 bd b8 8d 6d 38
       0.10700701 0.1019221 -0.12045347 5.663719e-05
0003f0 db 65 72 3e 6e de d2 bd 02 54 dd bd 74 37 1c 3e
       0.23671667 -0.10296331 -0.10807039 0.15255529

arith.constant2 f4 [26]
000000 14 c6 8d bc 5e 7c ca bc 64 d7 f9 3a 74 80 38 bd
       -0.017306365 -0.024717506 0.0019061384 -0.045044377
000010 79 56 be bd a6 45 12 bd b3 48 02 be 14 9e 92 bd
       -0.09293837 -0.035710953 -0.12723045 -0.07159057
000020 79 51 13 3d 78 7b 6e bd 46 8a 66 3d b6 59 33 3d
       0.03596637 -0.058223218 0.05628421 0.043786727
000030 d0 52 fc bd a0 20 3c bd f1 2f 1f bd ab 1a 95 3c
       -0.12320483 -0.04592955 -0.03886408 0.018201193
000040 5c 1f b0 3d b2 d2 ae 3c 7f 3e dd 3d 9f 3b 87 3c
       0.08599731 0.021340702 0.10802936 0.016507922
000050 1b 10 5d bd 3f ed b3 3d ba 47 94 3d ab 92 20 bd
       -0.053970437 0.087854855 0.07240243 -0.039202373
000060 58 aa ee 3d e7 f9 e2 3d
       0.11653584 0.11082821

sequential_1/dense_1_2/Add/ReadVariableOp f4 [64]
000000 a9 9d 27 3c 65 d8 8a 3d 7d 71 f9 3c 12 f5 85 bc
       0.01023046 0.06779555 0.030449623 -0.01635221
000010 1e 04 43 3d 4f c5 11 3d 6a 4e 2a 3d c1 b6 86 3d
       0.04761135 0.03558856 0.041578688 0.06577826
000020 76 30 e0 bb e7 43 fd 3b 88 aa 83 3d 5c 58 bb 3c
       -0.0068417145 0.007729042 0.06429011 0.022869281
000030 eb 3f 83 3d 04 bf 75 bd 02 57 b9 3d 33 91 13 3d
       0.06408676 -0.05999662 0.090497985 0.036027145
000040 ae bb f4 bc d4 ed b6 3d db 8c 01 3d 14 d1 8a 3c
       -0.029874649 0.08932081 0.03162847 0.0169454
000050 12 82 bc 3d 00 b0 ac 3d 4c 86 37 bd ff 37 00 3e
       0.092044964 0.08432007 -0.04480581 0.12521361
000060 46 48 ae 3d 6e a1 a5 bc 90 2d 1a 3d f0 2f a7 3c
       0.08509879 -0.020218577 0.037641108 0.0204086
000070 10 69 ab 3d be 71 ab 3d 4d 6f 0e 3a 2c e3 dd 3d
       0.083696485 0.08371304 0.0005433455 0.10834345
000080 65 3d f3 3c 39 3b 70 3c 14 a4 47 3d 7b 95 05 3d
       0.029692361 0.014662557 0.04874046 0.03261326
000090 0d d8 59 3d 89 3d c9 3d 1b d2 5f 3d 4f 5d 89 3d
       0.053184558 0.0982619 0.05464373 0.0670725
0000a0 96 dd 3b 3d 83 47 85 3c 63 ce 21 3d 38 be e5 3d
       0.045865618 0.016269451 0.039503466 0.11217922
0000b0 a2 ce c6 bc 8d f0 81 3d 30 3f f5 bc b7 27 a9 3d
       -0.024268452 0.063447095 -0.029937357 0.08259528
0000c0 d1 b0 9a 3b 13 6f 2f 3d 4f bd c6 3c 09 7b 8c 3d
       0.004720785 0.042830538 0.024260191 0.068594046
0000d0 68 59 db 3d e1 d6 1c 3d c1 f8 98 3d e5 78 d3 3c
       0.10710412 0.038290862 0.07469321 0.025814483
0000e0 ee 55 49 bd 1c 49 f8 3d 7e 03 9d 3d d9 cd da 3c
       -0.049154215 0.121233195 0.07666682 0.026709484
0000f0 c1 eb ce 3d 50 52 9f 3d 6b eb aa 3d 4e 4d c9 3d
       0.1010356 0.07779372 0.08345684 0.09829198

sequential_1/dense_1/Add/ReadVariableOp f4 [128]
000000 6b cb 64 3c c3 34 ad 3c 0a 2c d0 3d 04 58 99 bc
       0.013964514 0.021143323 0.1016465 -0.018718727
000010 bf 59 2e 39 20 76 90 3d 40 c5 7d bd 77 31 86 3c
       0.00016627366 0.070537806 -0.06195569 0.016381009
000020 5c 7f e4 3c 2c 94 bc b8 ee a3 d1 bc 58 d1 87 3d
       0.027892761 -8.992138e-05 -0.025590863 0.06631726
000030 00 00 00 00 72 4a cf bc b6 b9 e3 3b 4d 64 c5 3d
       0.0 -0.025304053 0.0069496287 0.096382715
000040 94 80 85 3c 10 5b 87 bc c3 be 05 bc 08 95 0a 3d
       0.016296662 -0.016522914 -0.008163157 0.033833534
000050 79 98 f5 bb fd 64 7e 3d a0 f2 a1 bb 60 bb 0b bd
       -0.007494983 0.06210803 -0.004942253 -0.03411424
000060 85 48 4f 3d 80 34 df 3c f9 00 8d bc 07 2f 0d 3c
       0.05060627 0.027246714 -0.017212378 0.008617169
000070 42 23 0c 3c 17 60 4c 3b 0c 47 45 3d 47 52 42 bc
       0.008553328 0.0031185204 0.04816346 -0.011860437
000080 df 78 23 bc 11 85 9b 3b ae 42 92 3b c6 47 1e 3c
       -0.009977548 0.0047460874 0.0044635152 0.009660667
000090 fc 38 86 3c 53 b5 30 3d b9 3e 53 3c e9 bb 42 bc
       0.016384594 0.043141674 0.012893372 -0.011885622
0000a0 f3 56 44 3d 4d 56 49 3d 8a fb 9d 3c bf b7 8c bb
       0.047934484 0.04915457 0.019284982 -0.004294365
0000b0 65 68 7b bd 7f 43 08 3d 1c 78 13 3c 31 4b 0e bd
       -0.061378855 0.033267494 0.009000804 -0.034739677
0000c0 38 68 c0 bb bb d3 43 bc 46 6d 8b ba 50 67 4f 3a
       -0.005871799 -0.011952336 -0.0010637424 0.0007911818
0000d0 44 b2 98 bc 90 13 94 3d 0c d0 83 3c 7d 90 11 bd
       -0.018639691 0.07230294 0.016090415 -0.035538185
0000e0 7a 7a 19 3c 3f 09 f6 3b 7a 70 2e 3d 00 00 00 00
       0.00936758 0.0075084264 0.042587735 0.0
0000f0 cc 7c 35 3d fa 3d 70 bd b7 73 03 3c 14 18 58 b9
       0.04430847 -0.058652855 0.008023194 -0.00020608335
000100 9d 67 18 3d 55 56 fb bc 1d bc 64 3c cf 77 84 bc
       0.03720819 -0.030680815 0.013960865 -0.01617041
000110 29 f5 09 bd c1 47 9a bb 9b 65 66 3d ce 89 95 39
       -0.03368107 -0.0047082608 0.056249242 0.00028522167
000120 b5 15 5e bd 53 d8 85 bc 8f 9c 2e bc ce e9 0a bc
       -0.05421992 -0.016338503 -0.010657444 -0.008478595
000130 52 a8 bc bc 85 2a cc 3c b7 5e 24 3b ea ec 70 bb
       -0.02302948 0.024922619 0.0025080869 -0.0036762306
000140 bc bc 91 bc 31 1e 54 3b 9b 7d 01 3d 83 ef 2d 3d
       -0.01779019 0.0032366628 0.031613927 0.042464744
000150 26 a3 27 3d 02 37 75 ba e0 9d f6 bb bd 09 37 bc
       0.040927075 -0.0009354205 -0.0075261444 -0.011171755
000160 d6 b6 97 bd 6b 2b 7f bd 00 00 00 00 c1 b0 9f 3a
       -0.0740792 -0.062297266 0.0 0.0012183414
000170 be fa 0b bd 43 6a f4 ba 06 0d 27 3d 3c 3a b6 bd
       -0.034174673 -0.0018647391 0.040783904 -0.08897826
000180 94 6f 42 3c 45 be c9 3c d7 45 76 bd 17 e9 90 3c
       0.011867423 0.02462686 -0.0601252 0.01768927
000190 32 7d 25 bd be 1d 0c bc 0b ea 4f bc 25 b7 49 bc
       -0.0404026 -0.008552013 -0.012690078 -0.012311731
0001a0 5c 23 03 bd 00 00 00 00 b0 22 af bb af 84 0d 3d
       -0.032016143 0.0 -0.0053447112 0.034550365
0001b0 83 44 0f 3d e4 4d 80 bc e5 20 16 bd 1a 33 9c 3c
       0.034977447 -0.015662141 -0.036652464 0.019067336
0001c0 d8 14 66 3d 48 bc 99 bd 5f 29 01 bd c6 5a 76 bc
       0.056172222 -0.07506615 -0.031533595 -0.0150362905
0001d0 1d 35 0d bd d3 e7 bb ba 2c 99 78 3a ac 9e 6a 3d
       -0.03447448 -0.0014336057 0.00094832736 0.057280228
0001e0 3c 1f 4a bc 68 2d 53 bd f1 ac e0 3b e0 3e 23 3d
       -0.012336548 -0.051556975 0.0068565537 0.039854884
0001f0 cd 6b 1b 3d f4 4f ca bb 83 5b 73 bd 4b 3c 0e bc
       0.037944604 -0.006174082 -0.059413444 -0.008681367

sequential_1/dense_1/MatMul f4 [128, 126]
000000 64 67 02 be 02 ac 89 bd d4 e3 22 bd 5e 96 0d be
       -0.12734753 -0.06722261 -0.039768055 -0.13826892
000010 e4 a4 fa bd fc d4 38 bd 71 5e fa bd ca d3 b7 bd
       -0.12238482 -0.045124993 -0.122250445 -0.089759424
000020 bd 12 75 bd 0b 40 c7 bd 70 b6 ce bc 39 16 ea 3d
       -0.059832323 -0.09729012 -0.025233477 0.1143002
000030 e4 d9 29 be 8f 5e 6f be 86 4b d3 3d 51 c5 e5 3d
       -0.16587025 -0.23375915 0.10317139 0.11219276
000040 6e eb 79 3e 3a 35 41 3e 6b 32 18 3c 1b 0c aa 3e
       0.24406216 0.1886796 0.009289364 0.3321236
000050 a5 24 1a be 68 32 55 bd 90 eb 9f 3e 4f 4f 23 be
       -0.15053041 -0.052050024 0.31234407 -0.15948223
000060 17 a0 28 3d ee a5 0b 3f 15 57 5f be 50 a2 d1 3d
       0.0411683 0.54550064 -0.21810563 0.10236037
000070 0a 33 7a 3e 88 8a da 3d cb 20 ad bd c0 c4 d7 3d
       0.24433532 0.10670954 -0.084535204 0.10535574
000080 e9 6b 83 bc 7e f4 a4 3d 23 5d 6b bc d1 c6 ad 3d
       -0.016042667 0.08054446 -0.014365467 0.08485187
000090 eb 92 9e bd 81 d8 55 3d 46 cd 3b 3e 91 bf 97 3c
       -0.07742866 0.052208427 0.18340024 0.018523963
0000a0 02 e0 1b 3b b4 66 52 bd aa a3 4a 3d 4a 02 5b 3d
       0.0023784642 -0.051367477 0.04947249 0.05346898
0000b0 62 a3 57 3e 55 ab bf bc 94 d1 8c be c6 07 14 3e
       0.2105842 -0.023397127 -0.27503645 0.1445609
0000c0 40 de dc 3d 38 10 93 be 38 f6 64 3e d4 6a 8b 3d
       0.10784578 -0.2872331 0.2235955 0.06807485
0000d0 fc 95 8a 3e 81 87 64 be 93 f3 a1 bd 81 c4 0b 3e
       0.27067554 -0.22317316 -0.07907786 0.13649179
0000e0 6f e5 07 bc be bf f2 bc 03 5f 33 3e 27 7e 50 3e
       -0.008294447 -0.029632445 0.17516713 0.20360623
0000f0 9d a9 dc bb 42 7f 31 bd a9 ea 7e 3d 2b a8 3e 3e
       -0.0067340867 -0.043334253 0.062235508 0.18618838
000100 c9 fe ac bc b8 20 0c 3e 10 37 9e bb b1 86 02 3e
       -0.021117585 0.13684356 -0.0048283413 0.12746693
000110 bf ca bd 3d 67 62 3f 3d a0 35 bf 3d b3 f9 40 be
       0.092671864 0.046724703 0.093364 -0.18845253
000120 96 9c e6 3d b6 ed 74 bc 30 c2 04 be 1c 2b bb 3d
       0.11260335 -0.014949253 -0.12964702 0.09139082
000130 6b 0a 1d 3c 09 f9 9a bd bf 8c ef 3d 09 f6 52 be
       0.009585003 -0.07567031 0.11696767 -0.20601667
000140 c7 88 19 3e 87 1a 82 3d 7e eb f8 bd 67 89 6e 3d
       0.14993583 0.06352716 -0.121542916 0.058236506
000150 d9 40 55 bd ff 98 d9 3d 1e 19 0f 3e f4 da 8a bc
       -0.052063797 0.10624885 0.13974425 -0.016950108
000160 da f9 95 3e c8 40 6a bd 01 e7 c4 bc c6 4a a1 be
       0.29292184 -0.057190686 -0.024035932 -0.3150236
000170 69 cb 75 3d a8 1f b6 bc c8 5f 5c 3d d6 e5 23 3e
       0.06000844 -0.022231892 0.05380228 0.16005644
000180 69 64 bd 3d 8f ff 17 be 43 3e 84 3e 11 c3 03 bd
       0.09247667 -0.14843582 0.25828752 -0.03216845
000190 da ea 0e be 1e 03 9c 3e 22 c9 c6 bd 8d 45 4f be
       -0.13956776 0.30471128 -0.09706332 -0.20241375
0001a0 1c 3f 1a 3e 94 2a 3c 3e ab 7d ac bd 3b f7 9e bc
       0.15063137 0.18375617 -0.08422407 -0.019404998
0001b0 c4 5f 41 3c 5c a2 b3 3d a3 a1 c3 3d fe 8a 1f 3d
       0.011802617 0.08771202 0.09552314 0.038950913
0001c0 28 8a 49 be cb 6f f9 3d 9d 6c c0 bd 0f 60 bd bd
       -0.19681609 0.12179526 -0.09395716 -0.09246837
0001d0 c4 a3 b7 bd b2 29 8b bc c8 d2 86 3d fb a4 e6 bd
       -0.08966783 -0.016987655 0.06583172 -0.11261936
0001e0 2e 06 b7 3d 12 b7 59 bd 2f 6f 15 bd 8a ea 19 bd
       0.089367256 -0.053153105 -0.036482986 -0.03757719
0001f0 40 4c 64 bd bd d1 54 bc 6d d0 d2 bd 14 6f 0a bd
       -0.05573678 -0.012989459 -0.1029366 -0.03379734
000200 6e c3 0c 3d 26 36 63 bd 09 9a 35 bd 1f ec 1c 3e
       0.034366064 -0.05547156 -0.044336352 0.15324448
000210 f8 4f e8 bd 2e bb 90 bd 97 35 1a 3d 2f 9e be bd
       -0.11343378 -0.07066952 0.037648764 -0.09307515
000220 22 c4 48 3e 18 f9 84 bd 31 bc 23 3d 9d 24 d1 3d
       0.19606069 -0.06492823 0.039974395 0.102120616
000230 b9 df 79 3d 51 08 5c be 5f 27 7b bc b1 22 33 3c
       0.061004374 -0.21487547 -0.015329211 0.010933564
000240 66 d0 0f 3e 85 2e 09 3d ee 82 14 3e 7c c7 e1 3d
       0.14044341 0.03349163 0.1450307 0.11024377
000250 0e 71 d0 3d ee 37 12 3e 69 5f e8 3d 45 87 7d 3d
       0.101778135 0.14279148 0.11346323 0.06189658
000260 fc 34 b5 bd b7 82 60 be 66 f6 90 be fd 94 e6 3d
       -0.088479966 -0.21924864 -0.28312987 0.11258886
000270 b4 fb 6e bc c4 36 3b 3e 5b 28 91 3d 97 aa 34 3d
       -0.014586378 0.1828261 0.07087775 0.044108
000280 8c de 97 3e 96 ad d1 3c 96 f6 f3 3d 7b 54 b9 3e
       0.29661977 0.025595468 0.11912267 0.36197266
000290 60 48 bb 3c d4 7a 46 be a0 77 70 be f1 6e ef 3c
       0.02286166 -0.19382793 -0.23483133 0.029227706
0002a0 34 6d e3 3d 64 ce 61 3e 83 81 8a 3d 6e 97 b7 bd
       0.11104813 0.22051388 0.06762984 -0.0896443
0002b0 38 05 2c 3e 58 b2 a6 3e 22 9a 8e 3d ee 6e 5e 3e
       0.16798866 0.3255794 0.06962992 0.21722004
0002c0 2d 8e 46 3d 93 0b 9d bd b7 3e 10 bd e2 b7 86 3e
       0.048475433 -0.07668223 -0.03521606 0.26312166
0002d0 a1 c4 13 be ff 3a a3 bc d4 64 af 3d 01 ea c0 3d
       -0.14430477 -0.019925592 0.08564153 0.09419633
0002e0 50 6d e0 3d 2e 59 36 3d b8 66 25 be a7 e0 23 3e
       0.1095835 0.044518642 -0.16152465 0.16003667
0002f0 04 12 8b bd 7f 73 22 be 27 54 09 3d f0 19 3b bd
       -0.067905456 -0.15864371 0.03352752 -0.045679033
000300 e8 ca 30 bd 73 4c e6 3d 0e c0 d6 bd 10 3a 3d bc
       -0.043162256 0.1124505 -0.1048585 -0.011549488
000310 ff bb e1 bc cf 13 45 ba a4 5f 42 bc 0e 47 6e be
       -0.027555464 -0.00075179053 -0.011863623 -0.23269293
000320 1c ea 7f 3c 71 c2 4d 3e c9 af e4 bd 29 de 9f 3a
       0.015619781 0.20093705 -0.11166341 0.0012196946
000330 30 cf 50 be cb de 3d be 0d e3 03 3e 14 61 dd 3c
       -0.20391536 -0.1854202 0.12879582 0.02702383
000340 d7 f8 25 be 2d 87 57 bd 2f 0f 99 3d 2d 96 d9 3c
       -0.16208206 -0.052619148 0.07473599 0.026560867
000350 fe 07 1b bd 68 c0 f1 3d c9 75 63 3e 28 42 12 be
       -0.03784942 0.11804277 0.222129 -0.14283049
000360 3a e4 75 be de 9f 78 be ba 98 9c bd 36 07 36 bd
       -0.24012843 -0.24279734 -0.07646318 -0.04444047
000370 28 ad 88 be bc fc 23 3e 34 82 34 3e 34 17 d7 bd
       -0.26694608 0.1601438 0.17627794 -0.105024725
000380 8d 52 8e 3e 39 39 1f 3e d1 fb 8b bd b8 a0 49 3c
       0.27797356 0.15549172 -0.068351395 0.012306385
000390 9e 78 39 be 53 cc 89 bd 8a fd bb bc 5f 51 8b 3d
       -0.18112418 -0.06728425 -0.022948045 0.0680263
0003a0 36 1c 35 be 36 97 7e 3e 44 7a 91 bd 6c ed 6a be
       -0.17686543 0.2486237 -0.071033984 -0.22942132
0003b0 f7 92 ac 3d 14 3f 0b 3d 04 50 54 3c a1 bd ad 3d
       0.08426469 0.033995703 0.01295853 0.084834345
0003c0 21 50 9e 3c 69 90 aa bd 65 a1 0d be 08 6d e7 3d
       0.019325318 -0.08328325 -0.13831098 0.11300093
0003d0 00 9d 48 be f6 8a 09 3d 86 ef b1 3c 78 b5 56 be
       -0.19591141 0.03357979 0.021720659 -0.20967662
0003e0 e2 47 1c be 6a 79 d3 3d 74 0a 1a 3d 77 2e bc 3c
       -0.15261796 0.10325892 0.037607625 0.022971375
0003f0 f3 c5 b4 3d b5 01 87 3c af 99 21 3e 74 b6 55 3e
       0.08826818 0.016480306 0.15781282 0.20870382
